AI-models/Failure-detection/Models/vae_model.pth (torch, 245264 bytes, 14 tensors)

encoder.0.weight f4 [128, 8]
000000 97 50 3d bd 24 9a b1 bd d5 50 0b be 56 0a 49 3e
       -0.046219435 -0.08671978 -0.13605054 0.19632849
000010 01 d8 06 3e ad db a0 bd 90 57 3e 3d a6 de 05 3e
       0.13168336 -0.078544 0.046470225 0.13073215
000020 11 ad 0d 3e 4b e7 90 bc 72 b0 4f 3e 5e 97 8d 3e
       0.13835551 -0.017688414 0.20282152 0.27654546
000030 b2 03 0d 3e 26 46 c0 be bf dd a2 3e 63 a0 bb be
       0.13770941 -0.3755352 0.31809804 -0.36645803
000040 e4 e9 26 be c3 7f bd 3d b2 7a 6a 3e ce d6 4c 3e
       -0.1630016 0.09252884 0.22898367 0.20003816
000050 bb f3 ce be ca 77 84 be b3 a4 78 be 32 84 57 bd
       -0.40420327 -0.25872642 -0.24281578 -0.052616306
000060 f0 cf a0 3d 4e 18 9a bd 91 a7 4e 3e d4 ca dc 3d
       0.07852161 -0.07524167 0.20181109 0.10780874
000070 ff 5b 24 be 62 c1 1e bd 55 23 45 3e c9 55 15 3e
       -0.16050719 -0.038758643 0.1925176 0.14583506
000080 af 57 77 3c 55 26 3d be ef 0b 86 3e 6b d6 f0 3d
       0.015096589 -0.18471654 0.2618098 0.11759647
000090 d4 8a 3b 3e ce d6 ca be a5 95 5f 3e 71 b1 02 be
       0.18314677 -0.39617008 0.21834429 -0.12763001
0000a0 09 7d 97 bd c7 4b 76 3e b6 1b 85 3d bb 92 10 be
       -0.073968954 0.24052344 0.06499426 -0.14118473
0000b0 a9 36 4e bd c6 2e 86 3c 7c db c3 3d eb cc b9 3d
       -0.050345097 0.016379725 0.09563348 0.09072288
0000c0 f4 70 76 3b 92 08 42 bd cf 66 69 3e 2a f5 8b 3e
       0.0037603946 -0.047371455 0.22793125 0.27335483
0000d0 7a 98 08 3e f0 88 c9 bc 6d a4 9d 3e 5b 4d a2 bd
       0.13339415 -0.02460143 0.3078951 -0.07924911
0000e0 00 1e af 3d 49 e1 2f be 89 3f 44 be ff c4 51 3d
       0.08550644 -0.17175783 -0.19164862 0.05121326
0000f0 a1 6e 2b 3e ce 9c 36 3e 59 68 bd 3d 33 9e 81 3e
       0.1674142 0.17833254 0.09248418 0.2531601
000100 90 e1 71 3d af 6b 44 be 9c f7 40 3e 21 80 41 3e
       0.059053004 -0.19181703 0.18844455 0.18896534
000110 da 78 10 be 96 f3 32 bc 96 eb 54 3d 9c 72 6c 3d
       -0.14108601 -0.010922333 0.051982485 0.057726488
000120 cf c8 a8 3d fc 3b 8c bd 34 73 95 3d 1c c0 2d 3e
       0.08241426 -0.068473786 0.07297364 0.16967815
000130 3e c1 a7 3e 6a db 49 be c0 82 92 bd ca b9 92 bd
       0.3276462 -0.19712606 -0.07153845 -0.07164343
000140 08 94 16 be fa 68 5e bd f2 8e 3a be 00 d9 3d be
       -0.14704907 -0.054299332 -0.18218592 -0.1853981
000150 c3 02 5d 3e 3b 30 6a 3e b5 e4 9b be a9 94 49 3e
       0.21583085 0.22869961 -0.30447927 0.19685616
000160 c3 c3 33 3d d8 38 37 be 6e 74 34 3e 9d 62 22 3e
       0.043887865 -0.17892778 0.1762254 0.1585793
000170 20 e9 96 bd 9a 82 e1 be 9f ef c7 be 28 51 2d 3e
       -0.07368684 -0.44044954 -0.39050004 0.1692549
000180 c5 25 81 3e 72 df 48 3e d1 a5 8d 3d 1b 02 06 be
       0.25224128 0.19616488 0.069163926 -0.1308674
000190 a6 23 6d 3d c8 3f 1e 3e ea ca 07 bd 33 9e 35 3e
       0.057895325 0.15454018 -0.0331525 0.1773613
0001a0 b2 27 cb 3d 1d a9 0c be 4e 30 50 be a2 ad bd bd
       0.09919681 -0.13736387 -0.20330927 -0.092616335
0001b0 2c 09 bc bd 06 ce d7 3d 9c 8b b3 3e 4c b3 38 be
       -0.09181437 0.10537343 0.3506745 -0.18037146
0001c0 85 fd 4a 3e 4d 22 4a 3e 3e a7 53 be f7 45 fe bd
       0.19823273 0.19739647 -0.20669267 -0.124156885
0001d0 c6 df 6a 3d 87 aa b4 bd cb ae f6 bd 0a 9d 1b be
       0.057342313 -0.08821588 -0.12045058 -0.15196624
0001e0 87 41 9f be 9b 6f 87 3e 12 dd 70 3e fd 45 01 bd
       -0.3110468 0.26452336 0.23521832 -0.031560887
0001f0 3f 4d 07 bc 64 74 99 3e ef 0a 88 bd 7d ea 1d 3e
       -0.008258163 0.29971611 -0.066427104 0.15421481
000200 a5 1b 22 3e 0d ce c1 3c dc 67 f7 3d f5 d6 04 3d
       0.15830858 0.023657823 0.120803565 0.03243156
000210 b1 d9 78 3e 60 98 00 bc 11 92 eb 3d 14 a7 e2 3d
       0.24301793 -0.007848829 0.11502469 0.11067024
000220 11 18 39 3e 33 d1 67 3e c7 06 0a 3e d7 49 06 be
       0.18075587 0.22638397 0.13479148 -0.13114105
000230 c7 0f 5a 3e 4c 44 26 3e 90 88 b5 3e 61 3c b5 3e
       0.21295081 0.1623699 0.3545575 0.35397628
000240 a1 c6 a3 3b 43 71 53 bb 19 27 2c bc c5 15 96 bc
       0.0049980436 -0.0032263554 -0.0105073685 -0.018320927
000250 ac b0 c2 3e 39 a0 01 3e 7f cd bb be a1 c7 f4 3d
       0.38025415 0.12658776 -0.3668022 0.11952139
000260 58 3e 80 3e 88 cc e8 bd 5e fe 9f ba d1 83 10 bd
       0.25047565 -0.11367136 -0.0012206545 -0.03528196
000270 52 19 85 3d 0b 4c 77 bd 81 95 96 3d 9d b6 73 3e
       0.0649897 -0.060375255 0.07352734 0.2380013
000280 de f0 70 be 60 d3 aa 3c 62 15 6e be f1 54 ae bd
       -0.23529384 0.020852745 -0.23250344 -0.08512295
000290 84 24 95 bd 52 5f 70 bd e5 df 8a 3e 5c a7 b1 3e
       -0.072823554 -0.058684655 0.27123943 0.34697998
0002a0 e9 cc bc bd 02 ee 9f bd f1 d7 11 3e 3d f0 55 be
       -0.09218771 -0.07809068 0.14242531 -0.20892425
0002b0 27 0e 59 3e 74 bd 40 be c3 b9 63 3e c9 fd 3a bd
       0.21196805 -0.1882227 0.22238831 -0.045652185
0002c0 cc 2c 78 3d 13 0d fb bd aa e1 d7 bd 8b 87 bc 3e
       0.060589597 -0.12258353 -0.10541089 0.3682216
0002d0 a2 ff de 3a f4 c9 22 be 44 66 52 be 69 c0 41 be
       0.001701344 -0.15897352 -0.20546824 -0.18921055
0002e0 b6 7d 36 be 80 09 5b 3e ce 43 4c 3c a9 41 6d 3d
       -0.17821392 0.21390343 0.012467338 0.057923947
0002f0 0d ac 5e 3e a6 a8 9a 3d 95 1e b4 3d db 03 f5 bd
       0.2174532 0.075516984 0.087948956 -0.11963626
000300 f4 8c 2a be db 4d 1c 3e 0a 6e ac 3d 1c 88 03 be
       -0.16655332 0.15264075 0.08419426 -0.1284489
000310 1a 37 5a 3d 15 3a 62 3e 56 4c b1 be b2 06 32 be
       0.053275205 0.22092469 -0.34628552 -0.17385367
000320 55 73 be 3d 73 94 11 3b d9 88 65 3e 5e f5 e0 3d
       0.092993416 0.0022213727 0.22415484 0.109843
000330 77 68 99 bd fb 79 25 3e 65 f7 72 3e 44 94 9c 3c
       -0.07490628 0.16159813 0.23727186 0.019113667
000340 25 f4 65 be 8b 3e 5b 3e f8 aa 6d 3e 2e 9f 8c 3e
       -0.22456415 0.21410577 0.2320975 0.27465194
000350 05 86 86 3d 75 d2 ed bc cc 48 16 be e3 f4 dc bd
       0.06568531 -0.029031018 -0.14676207 -0.10788896
000360 f4 b1 46 3e a8 ea b0 3b 5e 4a fb 3b 14 68 28 be
       0.19403821 0.005399067 0.0076687774 -0.16445953
000370 07 8a 0b 3d 6d 7d dd 3d a7 51 4e 3e d7 8f 23 be
       0.03406718 0.10814939 0.20148335 -0.1597284
000380 a7 f6 52 3e ad 32 ed 3c 1f 5d 98 3e ca a4 32 be
       0.20601903 0.028954828 0.29758546 -0.17445675
000390 4f 33 39 bd fc af b2 3e 20 69 df bc db 85 b9 3d
       -0.045214947 0.3489989 -0.027271807 0.09058734
0003a0 40 a3 18 3e a8 da 5e 3d 94 75 40 3e d8 e1 26 3e
       0.14906025 0.054407746 0.18794852 0.1629709
0003b0 07 8f 81 3c 4e c2 ef 3d ab 1f ac 3e 6a 83 16 3c
       0.015815271 0.117069826 0.3361791 0.009186605
0003c0 99 88 36 bd f3 9a 35 be a8 ce 78 3e 59 28 15 be
       -0.044563863 -0.1773489 0.24297583 -0.14566173
0003d0 41 ae d6 3c 67 9a 40 be b8 20 3a 3e 9e ae 09 3e
       0.026206138 -0.188089 0.18176544 0.13445517
0003e0 57 23 81 3c 30 97 3d 3e 62 cb 5d be f2 14 69 3e
       0.015763922 0.18514705 -0.21659616 0.22761896
0003f0 f9 0f 25 be 92 5d 31 3e 3e 95 a7 be 38 d9 91 3e
       -0.16119374 0.1732085 -0.3273105 0.28486037

encoder.0.bias f4 [128]
000000 62 bb 33 be fc 16 fe 3d 9b 88 27 3e 5b 10 70 be
       -0.1755195 0.12406728 0.16360705 -0.23443739
000010 5c cd 9e bd fc 2d ce be 21 d0 ad bd 84 57 7d 3e
       -0.07754013 -0.40269458 -0.08486963 0.24740416
000020 90 4c 67 be 49 83 b6 3d 38 5d a5 3d 4f 3e b8 bc
       -0.225878 0.089117594 0.08074421 -0.022490649
000030 40 8c 46 3e ba c8 bc 3e 08 52 65 3e f3 ae c6 3e
       0.19389439 0.36871892 0.22394574 0.3880535
000040 bc 31 b4 be ac fb 8f 3e 29 d5 6b be 6e 23 93 be
       -0.35194194 0.28121698 -0.23030533 -0.28737968
000050 b2 52 24 3e d2 b5 68 3d e6 41 90 3e e0 b2 cb be
       0.16047171 0.056814022 0.28175277 -0.39784908
000060 49 f2 89 bd 54 b3 c5 be 4d ee 93 be 59 4b 01 bf
       -0.06735665 -0.3861338 -0.28892747 -0.50505596
000070 bc 46 cc 3e d0 03 e5 bd 1c 72 52 3e 4c cd 3c 3e
       0.39897716 -0.11182368 0.20551342 0.1843769
000080 d9 90 4b be c1 bd c2 bb 3a 3a 70 bd 5e 23 75 be
       -0.19879474 -0.0059430306 -0.05864928 -0.23939273
000090 02 2e 6e 3e d2 fd bc be 4d 90 8e be de 14 7c be
       0.23259738 -0.369124 -0.27844468 -0.24617335
0000a0 03 49 a3 3e e9 26 aa be 16 0e b7 3d 5b f8 8d 3e
       0.3189164 -0.3323281 0.089382336 0.27728543
0000b0 44 68 59 bd f2 6e 21 3e ce ba 43 be a2 76 d5 be
       -0.05307795 0.15764979 -0.19114229 -0.41692072
0000c0 b0 6e f5 bd ce 97 f4 be e6 63 48 be 9b 48 59 bd
       -0.119840026 -0.47772068 -0.19569358 -0.053047758
0000d0 e0 5c 8e be c6 eb 88 3d 4b 25 c0 be e2 56 a6 3d
       -0.27805233 0.06685595 -0.37528452 0.0812204
0000e0 84 4c 20 3e 45 c1 ba be 77 95 fb 3d e4 a6 23 3e
       0.15654188 -0.36475578 0.122843675 0.15981632
0000f0 db 37 a3 3e 07 e1 04 be b3 98 8b 3e a8 c6 57 3d
       0.31878552 -0.12976466 0.27264938 0.052679688
000100 68 be 9a 3e a2 ba 8b be 73 67 2d be 63 ab 9f be
       0.30223393 -0.27290827 -0.16933994 -0.31185445
000110 91 c5 a8 be 89 9b a1 3e f8 4e 8d be ec 22 21 3e
       -0.3296323 0.31563976 -0.2759931 0.15735978
000120 cd 36 aa be 1d 79 b9 be c1 29 94 3d b0 f5 5d 3e
       -0.33244935 -0.36225215 0.072345264 0.21675754
000130 7a 16 68 be 4c 41 a3 3e 3e de 0f 3e 68 73 3d be
       -0.22664824 0.31885755 0.14049622 -0.18501055
000140 40 c0 f1 be cc d4 f9 3c 78 a9 c2 be 02 68 34 3e
       -0.47216988 0.030496977 -0.3801992 0.17617801
000150 be a8 67 bc 8c 1a 72 be 06 95 32 bd c9 d8 31 3e
       -0.014139352 -0.2364294 -0.04359915 0.17367853
000160 4c c9 85 be 11 08 d6 3c 66 f9 a1 be 1f 8c c1 bd
       -0.2613014 0.026126893 -0.31635588 -0.09450554
000170 e6 7d 91 be cb 6f fa be 61 a1 ef 3d b3 85 f5 bd
       -0.28416365 -0.48913416 0.117007025 -0.11988392
000180 d6 19 af 3e 8c 91 d0 be 89 b1 4e be f4 74 a3 be
       0.341994 -0.40736043 -0.20184912 -0.31925166
000190 cc 66 96 be e5 6d 1c be ad 78 2d 3e e2 0e d6 bc
       -0.29375303 -0.15276296 0.16940565 -0.026130144
0001a0 6b 20 68 be 8e 25 a1 be d0 98 57 be ec 0f 62 3e
       -0.22668616 -0.31473964 -0.21054387 0.22076386
0001b0 c5 3c d0 3d 93 34 30 be 93 98 47 3d af 1c b0 be
       0.10167841 -0.17207555 0.04872949 -0.34396884
0001c0 22 3a 53 be c2 87 8e 3e 7e e0 a3 3d 34 e7 73 3e
       -0.20627645 0.2783795 0.08001803 0.23818666
0001d0 5a 95 87 3e 2e b8 6e 3d af 07 89 be 8d 19 7c be
       0.26481134 0.058281116 -0.26763675 -0.24619122
0001e0 36 a2 9a be 3c cc 88 be c7 f4 ae 3c 9d 63 3d be
       -0.30201882 -0.26718318 0.021356953 -0.1849503
0001f0 5e 92 c9 3e f7 f2 20 3c fa 5f e1 bd b8 13 7b bd
       0.39369482 0.009823552 -0.11004634 -0.061298102

encoder.2.weight f4 [128, 128]
000000 b7 4c 6a 3a 5f 1a 72 3d 05 77 10 be 57 ea 8f be
       0.0008937823 0.05910718 -0.14107902 -0.28108475
000010 b3 dc 21 3c fc b3 fd bb 3d 73 5a bd e5 2c 72 3d
       0.009879279 -0.007742403 -0.053332556 0.059124846
000020 97 2a e3 3b e8 a8 3b bc 47 de f0 3c 72 ec be be
       0.0069325673 -0.011453845 0.029402865 -0.37289768
000030 82 4e e0 3d 95 33 61 bd f7 b8 13 3d 47 3a dc bc
       0.10952474 -0.054980833 0.036065068 -0.026883258
000040 2e 3c 83 be f9 a6 3c bb 1f 59 4c 3c 8a 4a 7a be
       -0.2563185 -0.0028786047 0.01247242 -0.24442497
000050 93 30 d8 3c 3f 53 03 bc 5a 3d d1 3d 56 2f 83 bc
       0.02639035 -0.008015453 0.1021678 -0.016013782
000060 1b 3b b2 bc 34 7f 8d 3d 9b c1 a6 3d 9d 0d 04 3e
       -0.0217567 0.06909028 0.08142396 0.12895818
000070 e9 dc 73 3c 4d ba 18 be a4 2d 0f 3d 46 c0 18 3d
       0.014884212 -0.14914818 0.034955636 0.03729274
000080 a7 2e a7 3c f4 cf 12 be 84 4e b6 3c ab 46 93 3d
       0.020407988 -0.1433714 0.022254236 0.07191213
000090 43 36 c8 3d f3 f4 53 3d 47 b6 c6 3c 35 91 da bd
       0.097759746 0.051747274 0.024256838 -0.10672227
0000a0 78 ff c0 bd 47 1c 42 bd 16 fb 44 3d a3 f7 97 bd
       -0.09423727 -0.04739025 0.048091017 -0.0742028
0000b0 c6 3c 25 3d 77 cc 2d bd f9 b3 1b bd b8 eb 79 3d
       0.04034116 -0.04243132 -0.038013432 0.061015815
0000c0 e9 23 30 3c 90 26 75 3e 33 12 c2 3c 1b 53 cd 3c
       0.010750749 0.23940492 0.023690319 0.025064042
0000d0 a4 d1 be bb 35 44 43 bd 51 4b 4c 3e f2 58 00 3e
       -0.005823331 -0.04767247 0.19950606 0.1253393
0000e0 41 9d 17 be 0b 1b 45 3e 2d c2 56 bc 3f af b8 bc
       -0.14806081 0.19248597 -0.013107819 -0.022544501
0000f0 72 4e 8b ba f1 36 07 3e ee 35 c7 3d 1a 28 01 bd
       -0.0010628237 0.13204552 0.09727083 -0.031532384
000100 25 8b a7 3c 4a a2 20 bd ac 60 e8 bd fe 38 e8 3d
       0.020452091 -0.03921727 -0.11346564 0.113389954
000110 70 99 bd bc 72 8a d5 bb 92 3c d8 3c 7a ac 76 b9
       -0.023144454 -0.006516748 0.02639607 -0.0002352464
000120 2a dd 6c 3d 3f 38 a0 bd df e7 26 bd d1 cb c0 3d
       0.057828106 -0.07823228 -0.040748473 0.09413875
000130 f3 bb c5 3b fc 20 af 3c 0e 51 07 3c 66 25 db 3c
       0.006034368 0.021378033 0.008259071 0.026751231
000140 bd 36 f9 ba bf d3 a7 3c cb c7 1f be 56 56 95 3d
       -0.0019013506 0.02048671 -0.15603559 0.07291858
000150 49 49 4a 3d 01 06 f1 3d bf 5c 2b 3d aa 76 4e 3a
       0.049386296 0.11768723 0.041836496 0.00078759587
000160 ad 0f 89 be ef b7 85 3c 58 5e 7c be e5 15 9f be
       -0.26769772 0.016323058 -0.24645364 -0.31071392
000170 b8 09 aa 3d 20 b4 c1 bd 2a ba a2 3d dd df 0b 3e
       0.08302635 -0.09458184 0.07945664 0.13659616
000180 fc 04 68 3d f1 5f e7 3b f8 b2 a1 be 9e 18 a1 be
       0.05664538 0.0070609977 -0.31581855 -0.31464094
000190 43 e6 a5 bc 84 bc 83 3d 81 88 49 bd ae 23 4e 3d
       -0.020251399 0.06432441 -0.049202446 0.050326996
0001a0 70 42 2b 3e 3a 67 0a bf 44 4e f6 bb 21 0d b7 bd
       0.16724563 -0.5406376 -0.007516654 -0.08938051
0001b0 93 29 c9 bb 7c b0 e5 3c a1 4f 64 bc 60 6b 04 be
       -0.0061389892 0.028038256 -0.013935001 -0.12931585
0001c0 e0 04 f6 3d df 0d b8 3d b3 25 b7 bc df 86 a4 3c
       0.120126486 0.08987021 -0.022356844 0.020083843
0001d0 4b 70 1c bc 0d 0e b6 3c 95 1f 77 3c 83 31 17 3e
       -0.009548257 0.022223497 0.015083213 0.14764981
0001e0 fc e7 06 3d 35 65 0d bc ab b0 7e bd 1e f6 f6 3d
       0.03293608 -0.008630087 -0.062180202 0.12058662
0001f0 9b 9c a2 bd fc 58 57 bc 09 60 f4 ba f7 6e 4d 3d
       -0.079400264 -0.013143774 -0.0018644343 0.050154652
000200 c1 60 2f 3c 97 58 38 3d 5f 55 f1 3b 13 69 60 bd
       0.01070422 0.04500636 0.0073649134 -0.054787707
000210 0d c4 d6 3b c4 33 4e be 55 4f 5a 3c 6a 4a a9 bc
       0.006554133 -0.20136935 0.013324578 -0.020665366
000220 98 4d c7 bd b3 b0 cf 3c 2d ef 59 3c 22 4f 97 3d
       -0.09731597 0.025352811 0.013301653 0.0738814
000230 af e9 1c bd f2 cc d9 bc 6f f9 55 bd 05 a3 f8 bc
       -0.038308796 -0.026586983 -0.05223983 -0.030351171
000240 b0 c4 d6 bc 9f 4b 85 bb 58 83 ac bd 3d c0 ef 3c
       -0.026216835 -0.0040678526 -0.08423489 0.029266471
000250 e7 38 57 3d 1d 91 23 bb 47 40 a7 bd f4 8a 67 3b
       0.0525445 -0.002495832 -0.08166557 0.0035330625
000260 45 e0 76 3c 62 d3 2c be f9 f5 50 3c 3d d1 b5 bd
       0.015068118 -0.16877511 0.012753957 -0.088778
000270 ac 0b c3 bd 5d 73 cf ba 87 12 13 bc 12 32 31 3d
       -0.095237106 -0.0015827228 -0.008976585 0.04326064
000280 2c 2e 14 bd f0 ef eb bb b4 7c 7c bd 58 36 80 bd
       -0.036176845 -0.0072002336 -0.061642364 -0.06260365
000290 da af 9e 3b 54 32 fa 3d 1b a2 73 3d c9 51 f1 bd
       0.0048427405 0.122166306 0.059480768 -0.117831774
0002a0 70 59 08 bd 54 b1 2d bd 75 57 a2 bd 8a 9c 48 bd
       -0.03328842 -0.04240544 -0.07926837 -0.048977412
0002b0 df a4 d0 bd 0e 5d 95 bd 66 a7 d2 3c 4b 62 fa bd
       -0.10187697 -0.072931394 0.025714587 -0.12225779
0002c0 56 3e 58 3d 74 fc 5d bd ba c3 d4 bd b1 93 7d bd
       0.052793823 -0.054195836 -0.103888944 -0.061908428
0002d0 2b 1e c5 bd b3 d8 aa bd 9d 56 2e bd 1e 68 36 3d
       -0.09624895 -0.08342113 -0.04256307 0.044532888
0002e0 83 1d 87 bc 13 02 de 3c 63 60 36 3d 5b 3d 40 3d
       -0.016493564 0.027100598 0.044525515 0.046933513
0002f0 51 3a 70 3d 3a ef 11 3d 6b 32 ab bd 17 f0 21 bd
       0.058649365 0.035628535 -0.08359226 -0.03953561
000300 76 02 fb bc 73 08 9a bc 9b ed ce bc 94 b6 36 3d
       -0.030640822 -0.018802857 -0.025259783 0.044607714
000310 2a d1 b6 bd 7c 91 51 3d 66 93 c6 bc 5b 05 28 3d
       -0.08926614 0.051164135 -0.024240207 0.041020732
000320 5e 16 32 be 01 0a a7 3b 82 8f aa bd 2d 7d ed bd
       -0.17391345 0.005097628 -0.08328153 -0.11596141
000330 9c ff 12 bd c4 15 93 3d 55 dd 42 3d 40 61 9a bd
       -0.0358883 0.07181886 0.04757436 -0.0753808
000340 14 5a c1 bd db 34 aa 3d d2 4f dc 3d d8 9a 81 3d
       -0.09441009 0.08310863 0.10757412 0.06328362
000350 30 f5 86 bb 1e ac 4f 3d 0c 1b cc 3a 79 6b a1 bd
       -0.004118584 0.050701253 0.0015572025 -0.07881827
000360 44 59 83 bd b1 c7 a8 bd c5 b0 c5 3c 67 e7 be 3d
       -0.064135104 -0.08241213 0.024132142 0.0932148
000370 f5 7f 18 bd a2 c3 07 bd 61 43 18 3d de 27 c8 bc
       -0.037231404 -0.033145554 0.037173633 -0.024433073
000380 c0 d0 ce 3d 62 a6 c7 3c c1 54 7c bd c7 60 81 3d
       0.1009841 0.02437133 -0.061604265 0.06317287
000390 f9 f0 c2 bb bc 46 a5 3c 35 10 3d 3d 12 bc 51 ba
       -0.0059491363 0.02017533 0.046158034 -0.0008000742
0003a0 07 bd cc bd 27 aa 00 3d 69 7b 19 bd 75 1d f9 3c
       -0.099969916 0.03141227 -0.03747121 0.030409554
0003b0 2f 36 a1 3d 62 91 dc bc 31 ee 5f bd a4 3d 14 bd
       0.07871663 -0.026924793 -0.054670516 -0.036191598
0003c0 d4 b1 d5 bb 52 02 86 bc de 04 ab bd 64 3a 62 bd
       -0.006521443 -0.016358528 -0.08350538 -0.055231467
0003d0 a9 f1 ce bc 9c c2 80 bc 96 57 92 bc 95 68 87 bd
       -0.025261717 -0.015717797 -0.01786403 -0.06611744
0003e0 5f 2c 06 bd ed 5a b8 bc ca c9 1d 3d 4c 02 c9 3b
       -0.03275716 -0.022504294 0.03852252 0.006134307
0003f0 77 dc 9c bd 4a 8e 5d 3d 5f f3 cd 3a 9b d1 46 3c
       -0.07659238 0.054090776 0.0015712789 0.012134935

encoder.2.bias f4 [128]
000000 2f 0f b8 bd 67 c5 b9 bd 4c 7f 24 bd 04 b0 e9 3c
       -0.08987271 -0.09070855 -0.040160462 0.028526314
000010 31 21 ac 3d 60 4f 70 bd 10 c4 ab 3c 0c 98 57 3d
       0.08404768 -0.058669448 0.020967513 0.052635238
000020 3e b8 b2 3d 4f 1b b0 3d 36 39 f9 3d d7 d7 11 be
       0.08726548 0.08598959 0.12169115 -0.14242493
000030 39 b9 9f 3c dd 21 49 3d 82 e2 df bb ae f3 35 bd
       0.0194975 0.04910456 -0.0068324218 -0.044421844
000040 57 8c 2a be 33 49 48 3d ff ae 38 bd 2f be 04 3e
       -0.16655098 0.048897933 -0.045088764 0.12963174
000050 3a 99 8c 3c 74 59 bb bc 3c 1e 4b bd bd a7 75 3a
       0.017162908 -0.022869803 -0.04958938 0.0009371003
000060 53 80 ca 3c 55 61 5b 3c 43 ca 0d 3e a2 b9 91 3d
       0.024719393 0.013389905 0.13846688 0.07115485
000070 a5 ff 28 bb 4e 46 32 3d 4e 99 17 bc b1 cd e6 bd
       -0.0025787142 0.04352408 -0.009252859 -0.11269701
000080 1f cd 1f 3d cc 7a af 3d 92 ce 9a 3c 87 ae 5b 3d
       0.039013978 0.085683435 0.018897329 0.05363324
000090 d4 c0 b4 3d a0 ca c0 3d fa 23 c2 bd 90 0c 69 bd
       0.088258415 0.09413648 -0.09479518 -0.056896746
0000a0 0f 61 4d 3d 21 f1 60 bd 6c ef b3 3d 47 13 a6 3b
       0.05014139 -0.05491746 0.087859005 0.005068216
0000b0 2a e6 56 3c 78 96 83 bd 7c d8 2f 3c dd 3f c4 3d
       0.013116399 -0.06425184 0.010732766 0.095824935
0000c0 a6 5c 91 bc e4 83 ab 3d 26 85 3a 3d 4b f2 39 bd
       -0.017744374 0.083747655 0.045537136 -0.045397084
0000d0 53 8c 2b 3d 80 dd 95 bb c8 37 88 3d b9 2e e0 bc
       0.04188187 -0.004573524 0.066512644 -0.02736603
0000e0 4a 11 00 bd e3 d5 bb bd 1e 61 0f 3e 1c c7 23 3d
       -0.031266488 -0.09171655 0.14001891 0.039984807
0000f0 d8 55 03 3e 53 73 fa bd a1 c2 f9 3d b2 98 ad bd
       0.12825716 -0.122290276 0.12195326 -0.0847639
000100 2b 99 be bd df a1 88 bd a7 4a 40 3e cc 05 0d be
       -0.09306558 -0.066714995 0.18778478 -0.13771743
000110 b3 a5 d8 3d b6 1b be 3d 48 7a f5 bd 3c 95 4e be
       0.105784796 0.09282629 -0.11986214 -0.20174116
000120 1e 41 e6 3c 8b 55 f5 3d 4c 56 ae bd 4a 75 70 3d
       0.028107222 0.11979207 -0.085125536 0.058705606
000130 4f a7 e7 bd 23 09 4e 3d 2e 97 86 be d9 78 0c 3d
       -0.113112085 0.050301682 -0.26287216 0.034294937
000140 23 b1 bc bd 71 f7 16 3e 09 05 70 3b da 42 8d 3d
       -0.09213474 0.14742829 0.0036624095 0.068975165
000150 e2 d2 ea 3c ec 7a 41 3e b9 df 6e bb 1f 58 1a 3d
       0.02866501 0.18894547 -0.0036449267 0.037681695
000160 42 68 70 be f2 71 f0 3c c2 d3 53 bd 6d 5b 00 3e
       -0.23477271 0.029351208 -0.05171562 0.12534876
000170 96 91 7f bd ee 66 ee bd 90 df be 3c 7c db 22 3e
       -0.0623947 -0.11640726 0.023299962 0.15904039
000180 ec e8 f8 3d 14 c4 40 bd f7 f7 1d 3e bd b7 13 be
       0.12153801 -0.047061995 0.15426622 -0.1442556
000190 44 15 f1 3d 99 30 2b 3d 08 be 3b 3d 98 89 15 be
       0.11771634 0.041794393 0.045835525 -0.14603269
0001a0 3d 03 ac 3c 92 48 02 3e 72 a6 0c 3e ad 76 1f 3e
       0.020997638 0.12722996 0.13735369 0.15572615
0001b0 87 6e df 3c 20 17 59 bd 0e ac 11 be d8 60 ae bd
       0.027274383 -0.05300057 -0.1422579 -0.08514565
0001c0 df 69 0e 3e 40 95 05 bd e6 19 fa 3c 0f 84 94 bd
       0.13907574 -0.03261304 0.030529927 -0.07251751
0001d0 a3 f5 79 bd 41 bc d2 bc 85 37 c0 3d 0e 33 11 3a
       -0.061025273 -0.025724532 0.093855895 0.0005538919
0001e0 99 d4 ab 3d 3f 28 a0 bd 3e 31 88 3d e2 8b 8a 3d
       0.08390159 -0.07820176 0.06650017 0.06764962
0001f0 7e 5b d6 bd 34 07 ba be bb 8e a9 bd fd bc 6a 3c
       -0.104666695 -0.3633362 -0.08279177 0.014327285

fc_mu.weight f4 [64, 128]
000000 a4 25 c5 3b b7 ca 24 3c cb 12 51 bc 74 3c f8 3b
       0.00601645 0.010058097 -0.012760828 0.007575566
000010 bb de 10 3b 1f 8a ab bb df c9 9b bc 32 4f bb bb
       0.0022105414 -0.005234971 -0.019017158 -0.005716228
000020 0c 39 86 3c e0 c1 98 bc 78 90 fe ba 62 67 e5 bb
       0.016384624 -0.018647134 -0.0019421717 -0.0070008496
000030 95 12 71 3c 42 bc 08 bc aa e4 5b bc 02 a6 25 39
       0.014713903 -0.008345665 -0.013421217 0.00015797469
000040 b6 17 39 bc 93 39 3a bb b8 24 7d 3b ba 46 da 3c
       -0.011297157 -0.0028415665 0.0038626622 0.026645053
000050 f6 7c bb ba 3a eb 45 3c ff b3 19 3b d0 0c a4 3b
       -0.0014304209 0.012080008 0.0023453233 0.00500641
000060 16 7c 2c bd ad d4 35 3b 1d 87 34 3c 15 b2 54 bb
       -0.042110525 0.0027745173 0.011018542 -0.0032454778
000070 33 b0 91 bc b0 78 2c bc d2 ac 6b bb ed 94 90 3c
       -0.017784214 -0.010526821 -0.0035961163 0.017649138
000080 75 07 50 bb a4 aa 2e 3a 64 f7 a5 bc 43 46 9c 3d
       -0.0031742726 0.00066630007 -0.020259567 0.07630589
000090 d7 cc ab 3c 6a df 3c 3a 99 c6 13 bc 99 2f d5 3b
       0.020971699 0.0007204922 -0.009019517 0.006505918
0000a0 53 f3 10 36 80 25 05 3c ae f8 b5 3a 16 51 0c 3b
       2.1599305e-06 0.0081266165 0.0013883316 0.0021410636
0000b0 20 ec 6a 3b cc a8 2e bb 60 46 db 3b 75 55 d7 3b
       0.0035846308 -0.0026650904 0.006691739 0.0065714666
0000c0 f1 b8 3f 3b d3 f0 ca ba c2 2f 15 bc 6c fc b3 3c
       0.002925452 -0.0015483148 -0.009105625 0.02197095
0000d0 69 76 38 3c 2c f9 aa 3b c9 98 45 bb f4 38 42 bb
       0.0112587 0.005217692 -0.0030150882 -0.0029635997
0000e0 b8 f0 45 3b fa 3a 88 3d 91 9a ef bb c7 a7 c4 bb
       0.0030203294 0.06651874 -0.007312127 -0.006001446
0000f0 24 be 7b bb 7f 8e 97 3b 1f 26 3a 3c c8 81 84 3b
       -0.0038412893 0.004625141 0.011361628 0.0040437914
000100 52 b1 c0 b9 6b 94 ea 3c f8 ea f8 3c a9 23 cb 3b
       -0.00036753208 0.028635224 0.03038548 0.0061993194
000110 29 c3 b7 bb 5f 33 64 bb 78 db 05 3a 1e 33 72 bb
       -0.0056079817 -0.0034820659 0.0005106251 -0.0036956738
000120 a2 cf 26 bb c0 9b b0 3a 4a 4d f1 bb 90 69 c3 3b
       -0.0025453349 0.0013474151 -0.00736395 0.0059635118
000130 9d 37 81 bc 25 9c 0c b8 e5 29 59 3c 74 00 82 bc
       -0.015773589 -3.3524022e-05 0.013254617 -0.015869357
000140 db 66 37 bd 81 02 28 bc 8c 51 b0 bb 12 da d6 ba
       -0.044775825 -0.010254503 -0.005380815 -0.0016391894
000150 1d d7 84 ba df 4b 07 bc bb 49 37 3a 4a 83 2f 3d
       -0.001013491 -0.008257835 0.00069918827 0.042849816
000160 2b 9c 35 bb fa f8 13 bc 25 5d cc bc ca fc e4 3b
       -0.0027711492 -0.009031529 -0.024946759 0.0069881426
000170 4a 26 e2 3b b9 1e 95 bb 92 68 37 bb bc 5c 3c ba
       0.006901537 -0.0045507816 -0.0027985913 -0.00071854494
000180 f8 7b 44 3c a9 cd 1c 3c 52 08 05 3d 9e 45 69 ba
       0.011992447 0.009570518 0.032478638 -0.00088986184
000190 3c 90 af bc 2c 5c f1 ba 4b b4 54 bc 3a 09 8c 3b
       -0.021431081 -0.001841431 -0.012982438 0.004273561
0001a0 4e 77 3b 3b 8e 9f de 3b 62 46 c4 3b e0 4d 9e 3c
       0.0028605047 0.0067939227 0.0059898356 0.019324243
0001b0 76 e5 90 3b c6 16 74 3b 74 fc 2f bc eb 5a 2d 3c
       0.004421885 0.003724502 -0.010741342 0.010580759
0001c0 ff ea 92 3a 32 f0 0f bc ed d5 0d bc 98 c6 1a bc
       0.001120895 -0.008785294 -0.008656961 -0.0094467625
0001d0 bd 13 27 3a 6d e0 2e 3b e7 a9 8a bc bd 8f 0d 3d
       0.00063734857 0.002668406 -0.016926719 0.034560908
0001e0 14 fa ba bc 5e 25 d5 3b ad d1 da 3a 2b 8b 0c 3a
       -0.022824325 0.0065046987 0.0016694568 0.0005361314
0001f0 c4 58 01 3c a5 89 1c 3c 0b 49 1b bb ee ae bd 3b
       0.0078946985 0.009554301 -0.002369466 0.0057886755
000200 90 26 17 bc 14 6d c1 ba be ba 89 bb 32 1e 08 bc
       -0.009225503 -0.0014757239 -0.0042031696 -0.00830798
000210 4d da 10 bc 0a f4 75 bc f7 1d 05 bd c8 a2 17 3c
       -0.008841109 -0.015011797 -0.03249928 0.009255119
000220 2c 8e 7c 39 19 f9 a6 bc bd a5 78 3c d7 49 33 bb
       0.00024085556 -0.02038245 0.015176234 -0.0027357244
000230 4a 4a 5c ba ae 5f e9 3b ea c5 10 bc d7 92 a6 3b
       -0.0008403404 0.0071220016 -0.008836249 0.0050834226
000240 00 19 38 3c 8b 26 89 bb 0a ac 7a bc 6e f2 20 3d
       0.011236429 -0.004185503 -0.015299806 0.0392937
000250 fc ee 74 bb 83 85 cf bb c5 92 4a 3c c9 d1 9e 39
       -0.003737389 -0.0063330545 0.012364094 0.0003029241
000260 ee bb 53 bc 22 94 79 3b 41 63 1e bb c2 7e d8 bb
       -0.012923224 0.0038082679 -0.0024168047 -0.0066069076
000270 09 0c ce bb 22 8f 4b bb 0a bf 80 3a af fa 3d 3c
       -0.006288056 -0.0031060656 0.0009822559 0.011595412
000280 12 8f 9f bb 2f 13 44 ba 33 c7 df bc c5 2b 9b 3d
       -0.00486935 -0.0007479665 -0.027316665 0.07576708
000290 f5 91 90 ba 81 69 af bb 72 bf 2d 3d 77 2a 64 bc
       -0.0011029827 -0.005353153 0.042418905 -0.01392614
0002a0 b5 7d 26 bc 25 4b 36 3b a6 8c e2 39 55 56 73 39
       -0.010161807 0.0027815786 0.0004321087 0.00023206447
0002b0 ca a2 69 bb d4 f6 5e 3c 35 0e 48 bc 30 1b 40 3c
       -0.0035650008 0.013608653 -0.0122104185 0.011725232
0002c0 8e 98 26 bc c6 45 92 bd d4 e7 19 ba 16 b4 52 3c
       -0.010168208 -0.071422145 -0.0005871032 0.012860319
0002d0 c9 6b 80 3c 04 76 4f bc 52 77 f4 ba 48 bc a3 38
       0.015676396 -0.012662414 -0.0018651283 7.807516e-05
0002e0 ae c5 72 ba f5 11 b3 bc 30 84 bf bc dd 6a 87 bc
       -0.0009261024 -0.021859149 -0.023378462 -0.016530449
0002f0 20 02 aa bb bd 7d 31 3c 6a 2c 21 3c 48 62 03 bc
       -0.0051882416 0.010833201 0.009837249 -0.008019038
000300 01 b4 10 3c 30 2a ab bd 19 47 0b bc d3 27 a2 bb
       0.008831979 -0.08357656 -0.008500838 -0.004948595
000310 db 88 f5 3b 73 a2 e5 bb 90 6d 86 3b b8 21 e6 bb
       0.007493121 -0.007007891 0.0041024163 -0.0070230626
000320 51 37 b6 3b 80 1a 0d bc c1 9d 23 bb 7c 33 63 bd
       0.0055607934 -0.008612275 -0.0024965855 -0.05546902
000330 65 1d 82 bc 4d 2e 2b bc 00 e5 ae 3b 49 44 d3 bb
       -0.015883157 -0.010448051 0.0053373575 -0.006447349
000340 e0 7c 6b bd 2c 0d 08 bc d5 0e bf 3a 72 3c e7 39
       -0.057492137 -0.008303922 0.0014576564 0.0004410479
000350 37 60 13 3b 5c f3 a4 3b 0a 4c 4a 3c 8b ec 0f 3a
       0.0022487768 0.0050338935 0.012347231 0.0005490265
000360 a1 08 aa bb 14 a0 f2 3b c9 a0 95 bd 48 94 b6 3c
       -0.005189017 0.0074043367 -0.07306058 0.022287503
000370 8a d8 79 3c 24 4a a9 ba 17 01 9c 3c c5 f9 0e 3c
       0.015249381 -0.0012915772 0.019043488 0.008726542
000380 9e 6a 0b bc ea 3d 4d bc 62 71 8c 3c 71 27 d0 3c
       -0.008509306 -0.0125269685 0.017143909 0.025409432
000390 e4 d8 97 bb ed fd 22 3b c6 7e 4b 3d ce 66 b1 bb
       -0.0046340097 0.002487059 0.049681447 -0.0054138666
0003a0 53 d9 34 bc 3b 77 4e 3c d0 e5 44 3b ff ee bc bb
       -0.011038142 0.012601669 0.0030044205 -0.0057657952
0003b0 d3 ec b1 3a e2 e9 0d bb ab 88 a0 ba cc 67 8c ba
       0.0013574607 -0.0021654298 -0.0012247761 -0.0010712086
0003c0 59 bc e2 3b d5 b6 e7 3b 32 7f 59 bc 0f e7 8f bb
       0.0069194254 0.007071356 -0.013274955 -0.004391558
0003d0 46 b1 aa 3a bc c8 9f bb 89 57 ea 3c c2 f0 71 bc
       0.0013022802 -0.0048762243 0.028606193 -0.014766874
0003e0 13 8f fd bb c2 e9 e2 3b b6 ae 68 bb 70 83 ac bb
       -0.007738003 0.0069248388 -0.0035504526 -0.005264692
0003f0 8b ba 89 3a 2d 0d b2 ba 09 39 09 bc 88 6c 93 3c
       0.0010507865 -0.0013584249 -0.008375415 0.017996088

fc_mu.bias f4 [64]
000000 2c e9 5c bd 7f fe 5b bc ce 1f 49 3d 32 8c 0d bd
       -0.053933308 -0.013427376 0.049102597 -0.03455753
000010 95 85 21 bd 93 13 c5 3c 0f c7 5f 3c 9b a0 0c bc
       -0.039434034 0.024057185 0.013658299 -0.008583213
000020 e4 27 aa bc 05 50 19 bd a3 bb ae 3c 9f 3c 9d 3b
       -0.020770974 -0.03742983 0.021329707 0.0047984864
000030 3f 7a 43 3c 17 b2 3a 3d 21 35 1f bd 6a 88 41 3c
       0.011931001 0.045579996 -0.038869027 0.011812309
000040 87 a8 89 3c 4f d4 fd 3b a2 15 d8 3b a6 91 10 3d
       0.016803993 0.0077462564 0.0065943757 0.03529515
000050 e9 e9 bc bb db 01 86 3c 9c 45 d5 3c 54 0a 64 bd
       -0.005765189 0.016358307 0.026034169 -0.055673912
000060 26 80 84 3b e8 4a 12 3c 40 c7 ec bc a6 19 e9 3a
       0.004043597 0.008928992 -0.028903604 0.0017784133
000070 77 cc 5f 3a 9f 2d 50 3d f2 0e a5 3b f8 f4 cd bc
       0.00085372425 0.050824758 0.005037182 -0.025141224
000080 69 24 fb bc bf 3e 6c 3d f1 c0 1e bd 7c cc 13 3c
       -0.03065701 0.057677027 -0.038758222 0.009020921
000090 21 bb 53 bb 13 2b a1 ba 18 bf 4d bc c0 41 92 bd
       -0.0032307582 -0.0012296162 -0.012557767 -0.07141447
0000a0 53 11 66 bc 92 a3 19 bb b5 ea b6 3c 91 1e 36 bd
       -0.014042216 -0.0023443443 0.022328714 -0.044462744
0000b0 8f c9 8d 3b 58 33 e7 39 88 be cc 3c 8c 5d 11 bd
       0.004327006 0.00044098007 0.024993196 -0.035489604
0000c0 2a cf f7 3c 20 53 c9 3b 1e b0 ad bc b3 f3 9b 3c
       0.03025015 0.0061439425 -0.021202143 0.019037103
0000d0 78 4a f3 3c 4e 91 2f 3d ad 1c c1 bb 4f a7 f0 3c
       0.029698595 0.042863183 -0.005893311 0.029376654
0000e0 ca a5 f0 3c 15 db 21 3c fe 94 c2 3c 75 33 d7 bc
       0.02937593 0.009878893 0.023752686 -0.026269654
0000f0 79 bf 52 bc a1 44 36 bb 85 2d 94 bc 30 db fc 3c
       -0.012863033 -0.0027811902 -0.018088112 0.030866235

fc_var.weight f4 [64, 128]
000000 e5 cd 20 bc 86 e8 73 bc 16 e3 1f 3d ef cd 5d 3b
       -0.009814714 -0.014886981 0.039034925 0.003384467
000010 02 3b 83 bb 34 61 27 bb 0c 52 7d ba bb a8 55 bc
       -0.004004837 -0.0025540115 -0.000966341 -0.013040717
000020 59 56 c5 3b 52 a9 27 bc f7 45 69 3b ba 8e ba bb
       0.0060222563 -0.01023324 0.003559468 -0.005693284
000030 f1 d2 e3 bb 06 1d f6 b9 ee 23 36 3c 48 ed 85 3b
       -0.0069526364 -0.000469424 0.011116965 0.004087124
000040 f6 e2 0d bc 22 b6 32 bb b0 85 90 3c e7 c9 f9 3b
       -0.008660069 -0.0027269204 0.017641872 0.0076229456
000050 9e bf a7 3a 37 03 2b 3b b4 28 24 3c b9 88 1f 38
       0.0012798195 0.0026094445 0.01001947 3.8035887e-05
000060 13 23 db bc 8a 03 fd 3b 14 a1 a9 bb ed de 37 3c
       -0.026750123 0.007721369 -0.0051766727 0.011222583
000070 d8 a4 be ba 79 49 4d bc 2d 28 b2 3b fb 0b db 3c
       -0.0014544977 -0.012529724 0.005436918 0.026739111
000080 72 35 d9 3b 42 69 42 39 e9 77 2e 3c 21 23 26 bd
       0.0066286856 0.00018540493 0.010648706 -0.040560845
000090 ac 2d 40 3c 95 f3 db 3a 73 16 4b 3d 65 ce ed bb
       0.011729639 0.0016780967 0.049581956 -0.00725727
0000a0 b2 66 33 bc 1a 9d e2 3a c7 81 05 bc 56 5a 6b bc
       -0.010949777 0.0017289252 -0.008148617 -0.0143647995
0000b0 99 91 07 b9 58 b0 db b8 86 23 33 3b ac 79 3f 3a
       -0.00012928843 -0.0001047558 0.0027334406 0.00073042023
0000c0 a9 43 9f 3a d9 b9 dc 3c cf 9b e8 bb 01 fa 5f 3c
       0.0012150902 0.026944088 -0.007098652 0.013670445
0000d0 54 34 ca 3b 9b 62 79 bb 59 43 36 39 2e e8 82 bb
       0.006170789 -0.0038053158 0.00017381962 -0.003994963
0000e0 1d 97 e0 3a 0b b5 2d 3d f5 cc 01 bc 9b c8 2f 3c
       0.0017134879 0.042408984 -0.007922401 0.01072898
0000f0 90 05 82 ba 1a 9b a9 3b 56 7c f3 ba 98 50 8e 3b
       -0.0009919871 0.0051759603 -0.0018576484 0.0043431036
000100 7d 43 f6 3b 55 24 0a 3d 06 f2 f0 3c be 50 6b 3b
       0.0075153694 0.033726055 0.02941228 0.003590628
000110 43 8b a6 bc dd 8c 5f bb bd f8 b2 ba be c2 c5 bb
       -0.020330077 -0.003411106 -0.0013654452 -0.006035178
000120 75 f4 41 3b b1 4e c8 3b 9e 9a 8a bb 7f 97 7c bc
       0.002959517 0.0061128964 -0.0042298576 -0.015416979
000130 3a 15 ed 39 60 27 b3 3b 37 f1 8d 3b a8 90 cb 3b
       0.00045219978 0.0054673404 0.0043317336 0.0062123127
000140 16 ac 35 3c 3a 5e 00 bc bc bb cb ba eb 00 a1 bb
       0.011088392 -0.007834965 -0.001554362 -0.0049134395
000150 5c 19 53 bc 15 35 c5 bb 6d 73 03 3b 0a 67 59 39
       -0.012884464 -0.0060182908 0.0020057813 0.00020733118
000160 3d 1e b3 39 9a 57 91 39 6d 0c de bc a0 02 d9 3b
       0.0003416407 0.00027721823 -0.027105534 0.0066226274
000170 08 15 b1 3b b4 56 e6 b9 44 c9 cf bb 02 49 7c 3b
       0.0054041184 -0.00043933617 -0.0063411314 0.0038495664
000180 cf 7d 47 3b 3c 5e 48 bc ce af 1a bc 26 1e 0c 3c
       0.0030439978 -0.0122294985 -0.009441329 0.00855211
000190 1a c8 e8 bb 48 2b 89 ba de c7 6a 3c 82 c0 bd ba
       -0.007103932 -0.0010465169 0.014329879 -0.0014476927
0001a0 df 96 83 ba 98 8f 97 bc de e1 f8 3b 18 48 f1 3c
       -0.001003947 -0.018501088 0.007595285 0.029453322
0001b0 b3 3c 86 3c 34 0d d9 bb 80 2e a0 bb a6 88 c8 bb
       0.016386366 -0.0066238884 -0.0048883557 -0.0061198054
0001c0 a7 6d 04 3c d0 bc 0d 3c e7 ce d6 39 4f c3 0c 3c
       0.008082784 0.008650973 0.00040971415 0.008591487
0001d0 d0 4a 19 3a bb 5e 3b 3c 54 be 96 bc 13 2b cb 3b
       0.0005847635 0.01143616 -0.018401302 0.006200203
0001e0 94 aa a0 3c 70 82 8d 3b 67 65 b6 3b 2a 65 5d 3b
       0.019612588 0.004318528 0.0055662873 0.0033782222
0001f0 78 ec 84 3b 7c 25 85 3b c1 35 d5 bb c2 56 66 3c
       0.0040565096 0.0040633064 -0.006506652 0.014058771
000200 a1 5c dd 3b 23 e6 12 3c ef 4b 99 3d e0 60 96 ba
       0.006755427 0.008966002 0.07485186 -0.0011472963
000210 0d bf 86 ba 9b 50 c0 ba bf 08 92 3b 42 33 0a 3c
       -0.0010280326 -0.001467246 0.004456609 0.008435072
000220 ba f3 0d 3c 77 20 63 bb 59 e2 7c bc 69 a6 37 3b
       0.008664066 -0.0034656802 -0.015434825 0.0028022772
000230 0d 97 10 3c 4b c5 34 3c c8 2f c2 3a 16 1e 5c bb
       0.008825076 0.011033366 0.0014815265 -0.0033587269
000240 d8 bf e5 3b f6 03 06 3c ee 17 28 3c bf 3b 4c bc
       0.007011395 0.008179655 0.0102596115 -0.012465416
000250 3c 61 a7 3c d7 61 88 3c 0e 94 e8 bb 63 c0 c0 3b
       0.020432107 0.016648216 -0.0070977276 0.0058823093
000260 ee 10 ed bc f6 3b 1c bb 25 53 60 3c 7c 7a 4d ba
       -0.028938737 -0.002383945 0.013691698 -0.0007838381
000270 82 bf a6 3a da b8 7e 3c 6f 9c 8d 3b d4 f3 12 3c
       0.0012721869 0.015547002 0.004321627 0.008969266
000280 b0 92 78 bc c2 40 92 bc 8b a1 91 3a 5b 69 e2 bc
       -0.015171692 -0.017853145 0.0011110766 -0.027638128
000290 0d 7a d7 3a 1e 29 97 3b d6 d3 66 bd 4a 89 9e bc
       0.0016439572 0.004613056 -0.056354366 -0.019352574
0002a0 a5 21 27 3c 7c 81 c4 ba a4 cf f4 ba 5c 57 05 bc
       0.010200893 -0.0014992203 -0.0018677604 -0.008138504
0002b0 a2 49 26 ba 4b 6d 93 bc 07 be a2 ba 1c 99 e9 ba
       -0.00063433696 -0.01799645 -0.0012416252 -0.0017822119
0002c0 60 25 02 bb 6e 3a ea 3c 7d 7c 03 bd 68 3d c9 b9
       -0.0019858703 0.028592315 -0.032101143 -0.0003838346
0002d0 cd a3 59 3b e3 a6 f3 3a 1d 55 2f b9 61 60 6d bb
       0.0033209205 0.0018589165 -0.00016721008 -0.0036220776
0002e0 31 f9 4d 39 89 93 c1 3c 1b a1 a5 ba e8 85 82 bc
       0.00019643155 0.02362992 -0.0012636514 -0.015932992
0002f0 a5 4b fd 3b f3 46 e3 3b 87 ca 16 3c 94 67 28 bb
       0.007729965 0.006935948 0.00920356 -0.0025696503
000300 de 62 94 3b 52 6f 8d bd 73 d8 59 bb 34 b3 b1 3a
       0.0045283874 -0.06905998 -0.0033240586 0.0013557435
000310 0e 9b 56 3c 8d 0e 02 bb bb 99 0b bc 9e 74 e2 bb
       0.013098491 -0.0019845099 -0.008520539 -0.0069108745
000320 fc 21 49 bc 9d a3 cd 3a ac 98 7d bc 94 27 ae ba
       -0.012276169 0.0015689019 -0.015478294 -0.0013286942
000330 8b 3d 41 3b c2 b9 91 3a 8a 59 82 ba 7d 18 19 bc
       0.0029486145 0.0011117982 -0.0009944898 -0.009344217
000340 fb 0d 85 bc 29 2b 26 3c 56 57 5c bb bc 56 cb ba
       -0.016242018 0.010142126 -0.0033621392 -0.001551352
000350 a6 fe b1 3c cf f9 77 bb 29 df b9 bb c3 50 8d 3c
       0.021727871 -0.0037838107 -0.0056723547 0.017250424
000360 9d 77 a0 bb c8 37 a1 3b 1c a7 a9 bd 7f c1 6b 3c
       -0.0048970715 0.0049199797 -0.08283827 0.014389395
000370 c6 89 24 3b ac d4 c3 b9 bb 8b 0f bc 7c 20 21 bb
       0.0025106533 -0.0003735175 -0.008761342 -0.0024586013
000380 ed f8 aa ba fd 95 87 3c cb a6 4f 3d 6c a5 37 b9
       -0.0013044156 0.016551012 0.050696176 -0.00017513864
000390 6f da 13 3d 60 84 bb 3b 78 ce 11 bd d0 93 60 3b
       0.036096986 0.0057225674 -0.035597295 0.003426779
0003a0 23 06 0a bc e2 8d d0 3b 26 1b bc 3c bf 70 09 bd
       -0.008424315 0.00636457 0.022962164 -0.03355479
0003b0 36 2d 8e 3b 64 56 dc bb 09 82 19 3c c0 b1 0f 3a
       0.0043388857 -0.0067241658 0.009369382 0.0005481504
0003c0 0f 7d 12 bc 13 b4 55 bb f9 2d dc bb 51 c8 25 bc
       -0.008940949 -0.0032608553 -0.0067193476 -0.01011856
0003d0 b5 1b 38 b8 ed a2 dc 3a b2 72 bb bc 98 55 d3 3c
       -4.3894823e-05 0.0016833224 -0.02288184 0.02579765
0003e0 e1 07 0f 3c d9 33 93 3b af 66 6c bb 78 84 b1 bb
       0.008729906 0.0044922647 -0.0036071946 -0.005417403
0003f0 c6 26 4d 3b 86 11 b1 3a 69 ee 33 bb 8c f9 9d 3a
       0.0031303628 0.0013509251 -0.0027455336 0.001205252

fc_var.bias f4 [64]
000000 22 c2 e9 bc b4 61 e3 bc 84 31 c2 bb 59 41 79 bc
       -0.028534953 -0.02775655 -0.005926313 -0.015213334
000010 04 b3 66 bc f2 8e da 3c 69 78 5d bd ae 91 13 3d
       -0.014080767 0.02667949 -0.05406991 0.036027603
000020 33 f4 f2 3c d7 9f a5 bc 99 89 f2 bb 00 4a 30 bd
       0.029657459 -0.02021782 -0.007401657 -0.043039322
000030 e5 9e fb ba 6a 24 b9 3c 02 cd 2c 3c 89 83 fe bb
       -0.0019197135 0.022600371 0.010546925 -0.007767145
000040 89 7d 9c bc fb ae 88 bc b5 94 36 bc 59 09 af 3c
       -0.019102829 -0.016685 -0.011143853 0.021366762
000050 56 39 9d 3c c7 fb 0d be ae 75 14 be 82 28 c0 3a
       0.019192379 -0.13865577 -0.14498016 0.001466051
000060 ff 4a 35 3d f1 44 45 3b 2f ac 04 3d 9d 46 d9 bc
       0.044260975 0.0030100907 0.03239077 -0.026522929
000070 0b 58 00 ba 66 00 09 bd 1b 2e 9b bb 8c f8 07 bb
       -0.0004895932 -0.033447646 -0.004735721 -0.002074751
000080 ed 28 94 bc ea a9 d8 bd e8 a4 b9 3c 5c c2 3e 3d
       -0.018085921 -0.105792835 0.022661641 0.046572074
000090 55 4e c2 bc d0 de 7c bb 03 ae 0d 3d 44 d5 39 be
       -0.023718992 -0.0038584955 0.03458978 -0.1814776
0000a0 77 fe 04 bc f8 31 74 bc a9 ee c0 3b 18 96 47 bc
       -0.00811731 -0.014904492 0.0058878255 -0.012181781
0000b0 db 67 8f 3b 38 ca 03 bc ba 81 91 3b 4f 50 49 3c
       0.004376394 -0.008043818 0.0044405134 0.0122872135
0000c0 4a e6 fd bc 88 62 24 bd 9c d8 43 3c ac 46 c1 bc
       -0.0309936 -0.04013303 0.011953499 -0.02359327
0000d0 a5 f1 68 bc b6 d3 df 3c 7a b4 3f 3d e6 5e af bc
       -0.014217769 0.027322631 0.046802975 -0.021407556
0000e0 00 1f 19 bd 71 06 98 bc 10 b5 08 bb 81 a3 22 3b
       -0.03738308 -0.018557759 -0.0020859875 0.0024816694
0000f0 f8 94 32 bd e4 67 05 3c 23 b9 85 3c f4 83 f9 3c
       -0.0435991 0.008142445 0.016323632 0.030458428

decoder.0.weight f4 [128, 64]
000000 9a 26 11 bb 37 c3 bc 3c 99 4b 54 bb 6d 82 00 bc
       -0.0022148252 0.023042304 -0.0032393693 -0.007843596
000010 54 9f cb ba 25 28 f4 bb 1d 6e d2 3c aa 4a 9a bc
       -0.0015535154 -0.0074510747 0.025687272 -0.01883443
000020 a2 1d f9 3b ea 20 07 3d 56 80 1f bc f4 c8 84 3b
       0.0076024095 0.032990374 -0.0097351875 0.004052276
000030 87 da 80 3b d5 f4 80 bc a0 bb fe 3c 7d 46 12 bb
       0.0039323005 -0.015741745 0.031095326 -0.0022319846
000040 14 6a a4 3c 37 88 0f ba 57 0b 3c 3b bd 21 f5 3a
       0.020070113 -0.00054753147 0.0028693283 0.0018702071
000050 53 0f be 3c 3f 36 dd 3e c2 55 f7 be 90 52 04 3d
       0.023200667 0.4320545 -0.48307616 0.0323053
000060 e4 de b2 3a 15 b4 54 bb 3a cb 2d bc b4 f5 11 bb
       0.0013646749 -0.003245597 -0.010607535 -0.0022271695
000070 26 b5 1d 39 8a bf 23 bc 4d cd 90 3c e1 ce 12 bc
       0.0001504017 -0.009994397 0.01767602 -0.008960457
000080 29 a6 df 3c e2 7b 46 be 79 c5 22 bd 42 28 a4 bb
       0.027300911 -0.19383195 -0.039739106 -0.005009682
000090 60 eb 70 bc f2 6a 58 3c 84 53 a7 bb 47 54 35 3d
       -0.014704555 0.0132090915 -0.0051063914 0.044269826
0000a0 18 8f 4c bb c8 b8 88 3c 82 e9 ae 3a 1e 92 cc 3c
       -0.003121322 0.016689673 0.0013344737 0.024972018
0000b0 17 40 36 bc 7b fa 71 bb 25 d7 63 3c 2d 2a 6a bc
       -0.011123679 -0.003692298 0.013906275 -0.014292282
0000c0 8e df 10 3c da 22 b4 bb 36 e3 24 bc 3d 47 69 3a
       0.008842362 -0.0054973187 -0.010063937 0.000889886
0000d0 d3 d1 fd 3b a9 55 28 3c a2 df 8e bc 12 ba 34 3d
       0.0077459603 0.010274329 -0.01744062 0.044122763
0000e0 5e e3 90 bb 74 45 ab bc 3a a9 30 3c 25 6b 93 ba
       -0.0044216355 -0.020907141 0.010782534 -0.0011247142
0000f0 50 71 23 3b 55 01 16 bc 1e 86 cf 3b 73 9b a9 bc
       0.0024939366 -0.009155591 0.0063331267 -0.020704007
000100 45 98 e1 3c e1 9a b5 ba 2d 18 fe ba 66 2e f7 bc
       0.027538428 -0.0013855362 -0.0019385867 -0.030173492
000110 bb d8 05 bd d9 81 34 bc 51 d2 32 bc 15 f4 c4 ba
       -0.032677393 -0.011017286 -0.010914401 -0.0015026355
000120 66 34 e9 3b b2 4f 5b bb 28 6e b4 bb ae 2a 87 3c
       0.007116842 -0.003346425 -0.0055062957 0.016499843
000130 4b 80 76 3b 67 fc e9 bb c5 b4 e8 bc 5c 2e 4a bc
       0.003761309 -0.0071406844 -0.02840651 -0.0123401545
000140 a9 40 76 3a 4d fc 34 3a ce 34 1d bb eb 6e 0d bd
       0.00093937904 0.0006904051 -0.0023987773 -0.034529608
000150 e3 3b d7 3b 57 21 08 bd b8 37 ed 3c f4 51 cb 3c
       0.0065684184 -0.03323492 0.028957233 0.024819352
000160 44 7d bb ba 8c 33 1a 3d e6 96 db bb 7a 64 dd bb
       -0.00143043 0.037646815 -0.006701338 -0.0067563625
000170 7c 3d 75 3a 84 e5 e7 bb 54 f9 e5 3c 67 86 89 3c
       0.000935517 -0.007076921 0.02807299 0.01678772
000180 30 b3 aa 3c b7 39 11 be cd d0 b4 bc 96 a0 f0 bc
       0.020837396 -0.14182173 -0.02207222 -0.029373448
000190 f9 f1 63 3b 5c a8 de 3c 8e 02 ea bc a6 e2 8b be
       0.0034781678 0.02717989 -0.028565671 -0.27321357
0001a0 16 e1 33 3c 68 7d b1 bb 24 d2 e3 3c 45 b2 a7 3c
       0.010978958 -0.005416561 0.027810164 0.020470748
0001b0 39 1d a3 bc f8 fb bf bc 45 1c 93 3c 38 f4 ba bc
       -0.019911395 -0.023435578 0.017957816 -0.02282153
0001c0 5b e8 6c 3c ff 85 c3 ba 3b 16 11 bb 0e 03 0f 3c
       0.014459695 -0.0014917253 -0.0022138495 0.008728756
0001d0 85 a3 ff ba 39 60 ae 3b fa 89 84 bb a0 bd 3e bc
       -0.0019503689 0.005321529 -0.0040447684 -0.01164189
0001e0 50 e0 8a bc 50 01 93 3b 04 9b e7 bc 65 f9 e4 bb
       -0.016952664 0.0044862404 -0.02827216 -0.006987738
0001f0 d9 f3 8e 3c ba 02 a0 bc 66 ad f0 bc 9f 27 39 3b
       0.01745026 -0.01953255 -0.029379558 0.0028252376
000200 2c 43 b2 3c ca 5d 7c bc 79 33 b4 3c b3 ae 15 3c
       0.021760546 -0.01540322 0.0219972 0.00913589
000210 ef ce ba ba 67 2f ed ba 52 79 58 3c 23 8e 57 3c
       -0.0014252345 -0.0018095792 0.013212519 0.013156447
000220 37 06 85 3c 93 58 b1 3c 17 fc 12 bc 5c b7 55 3c
       0.016238315 0.02164868 -0.008971236 0.013044205
000230 f9 5e 01 3c 11 0d 1e bc d6 e5 81 bc a8 52 5e 3c
       0.007896178 -0.00964667 -0.015856665 0.0135695115
000240 4c fd 08 3d 84 4d 94 bc b3 81 88 3c ff b7 ac 3c
       0.033444688 -0.018103369 0.016663408 0.02108383
000250 77 a6 e1 3c 3b e2 db 3d 48 91 1d 3e af 75 e5 3c
       0.027545197 0.107365094 0.15387452 0.028010217
000260 d8 ef 4c 3c 0c 29 fa bc 23 8d ed 3b ec a6 24 3c
       0.012508355 -0.03053715 0.007249491 0.010049563
000270 4b 63 d5 3b 2c 49 6e bc c7 b2 08 3d 3a 20 80 bc
       0.006512081 -0.014543813 0.03337362 -0.015640367
000280 89 7f e4 bc df b2 7a be 57 71 f2 3c 6e 24 1c bc
       -0.027892845 -0.24482296 0.02959506 -0.00953017
000290 ab 3b 6f 3b 3a 48 f5 3b 9b 4e 8b bb 7d 9a 88 3b
       0.003650407 0.0074854167 -0.004251314 0.004168807
0002a0 4a 77 42 bc d9 86 9c 3c 46 a6 4d 3c c6 3d 6a 3c
       -0.011869261 0.01910727 0.01255185 0.0142969545
0002b0 a0 08 34 bc 3b f3 ed bc 97 d2 51 bc e1 29 33 3c
       -0.0109883845 -0.029046645 -0.012806556 0.010935278
0002c0 00 0c 39 3c fa e1 f0 bb f8 0f 2a 39 60 d3 01 3c
       0.011294365 -0.0073511573 0.00016218412 0.007923931
0002d0 ed 85 0e bc 44 45 1f 3a ef 63 8a bc 6a 68 2a 3c
       -0.008698923 0.000607569 -0.016893355 0.010400871
0002e0 93 34 0f bc 56 f4 86 3c b6 81 f2 bc f8 42 6f 3c
       -0.008740562 0.01647393 -0.029602867 0.014603369
0002f0 b5 bc c1 bb 0d 75 d2 3b a1 93 3d bb 50 b2 63 3b
       -0.005912388 0.006422645 -0.0028927105 0.0034743734
000300 5c a4 e5 bb 7f 42 f4 bb ad a9 7a 3a 1c 68 ab bb
       -0.0070081186 -0.007454216 0.0009562027 -0.0052309167
000310 25 41 1b 3c b1 3b ab bb bc ce 4c 3c 2a 25 f8 3b
       0.009475981 -0.0052256216 0.012500461 0.0075727897
000320 48 6a b9 bb b0 47 c8 3a 38 d5 87 3a 55 79 df 3b
       -0.0056584217 0.0015280154 0.0010363227 0.006819884
000330 9c b1 61 bb 4b 37 b2 ba 40 f9 af bb 0a 42 da 3b
       -0.0034438139 -0.0013596801 -0.005370289 0.0066607045
000340 47 99 cb ba 70 50 c9 bb 50 56 e1 3b ea ab c6 3b
       -0.0015533351 -0.006143622 0.0068767443 0.006062974
000350 02 8a 07 bc 40 8b 9e bf e2 85 ce bb f6 39 10 3c
       -0.00827265 -1.2386246 -0.006302581 0.008802881
000360 be 38 01 3b 37 50 81 3b d7 e8 6b 3b 5c 7a 97 3b
       0.001971766 0.00394633 0.0035996938 0.0046227407
000370 25 30 09 3c 29 73 bb bb 86 3b 5b 3b 35 8d 83 bb
       0.008373295 -0.0057205153 0.0033452227 -0.004014636
000380 d0 df 92 bb 51 e5 03 3b 24 45 83 bb 68 99 99 bb
       -0.004482247 0.0020125697 -0.004006045 -0.004687477
000390 2f b9 11 bc 1d 84 96 3b 0b 7b 9c ba fe 50 03 ba
       -0.008894249 0.004593386 -0.0011938525 -0.0005009322
0003a0 86 53 75 3b 6f 4e ec 3a aa 33 b3 bb 01 95 92 ba
       0.0037433817 0.0018028746 -0.0054688053 -0.0011183323
0003b0 44 44 78 bc e0 65 73 ba af f5 96 3b 21 c2 f6 3b
       -0.015152995 -0.0009284895 0.0046069245 0.007530466
0003c0 d2 0e df bb 3e 6d 67 3b d9 e0 a3 3b f1 f7 2f ba
       -0.0068071866 0.0035312916 0.005001169 -0.00067126664
0003d0 41 7b 79 bb 3a 2c 93 bb 47 0d 4e 3b 4e 25 ad 3b
       -0.003806785 -0.004491356 0.003144102 0.005283988
0003e0 5e dc f3 3b e0 36 be 3b d9 24 b6 3a ff da 2b 3b
       0.0074420413 0.0058048815 0.001389648 0.002622306
0003f0 f0 23 26 bb 23 e2 d1 3b 6f 47 ad bb 41 59 29 3b
       -0.002535101 0.0064051314 -0.0052880566 0.0025840553

decoder.0.bias f4 [128]
000000 2a 84 f3 3e ee f5 4c 3e 49 07 f3 3e 10 8e 06 3f
       0.4756177 0.2001569 0.47466496 0.5256052
000010 b6 0f a7 3e 48 a8 79 3e c9 81 19 3f 70 d8 8a bc
       0.32629174 0.243806 0.5996366 -0.016948909
000020 79 5c ab 3d 55 df 24 be f9 54 0a be f4 b6 97 3e
       0.08367247 -0.1610082 -0.13508977 0.2963177
000030 bb 5d 4e 3c 34 32 40 3e bc 62 e1 bd 7f d4 84 3e
       0.012595589 0.18769151 -0.1100516 0.25943372
000040 2c 52 f7 3e f0 93 ad 3d 45 be 8b 3a 57 ca 97 3e
       0.4830488 0.084754825 0.0010661563 0.2964656
000050 e3 3f c2 3e 5b 69 44 3e 7b 8e 11 3f 69 44 c4 bd
       0.37939367 0.19180815 0.5685803 -0.09583361
000060 34 e6 e0 3e 81 75 32 be 94 c4 c7 3e cc b8 95 3e
       0.4392563 -0.17427637 0.39017165 0.2924255
000070 2f d6 fd 3e ce 38 45 3f 6a c9 31 3e ea 75 13 3e
       0.49577472 0.770398 0.1736199 0.1440045
000080 b9 5d fd 3d c6 9a 2b 3e f1 3c 00 3f fe 3e 0e 3e
       0.12371392 0.1675826 0.5009299 0.13891217
000090 64 8a 89 3d bb d2 83 3e 0b c8 f2 3e bf 0f 63 3e
       0.06715849 0.25746712 0.47418246 0.22173975
0000a0 ee 1f 02 3f 70 20 0a 3f be 08 1a 3f 51 f3 1d 3e
       0.5082997 0.53955746 0.6016959 0.15424849
0000b0 45 e7 1c be b9 b3 7b 3c c4 11 5a 3e 23 2d 2f 3e
       -0.15322597 0.015362673 0.2129584 0.17107062
0000c0 ee 33 3b 3f 9b 6b 71 3e 44 0f c0 bd df 22 3f 3e
       0.73126113 0.23576204 -0.09377912 0.18665646
0000d0 ac 3a 5c 3c 26 c8 cc 3c fb 51 3e 3f 85 fb 5b 3d
       0.013441723 0.024997782 0.7434384 0.053706665
0000e0 95 fd 05 3f 5b 6a 05 3c d0 05 07 3d c7 1f cb 3c
       0.5234006 0.008143033 0.032964528 0.024795426
0000f0 37 01 6f 3e 2c df 18 3e c5 ba b8 3d cb b2 b9 bd
       0.23340307 0.14928883 0.090199985 -0.09067305
000100 27 a5 5b 3e 26 d3 aa 3e 41 db c9 3e ac 17 2f 3e
       0.2144972 0.33364218 0.3942509 0.17098874
000110 2d 99 3b 3d 7d f1 fd 3d b4 6e e2 3e a2 c8 01 3f
       0.045800377 0.12399576 0.44225085 0.50696766
000120 4e 2b 39 3e b3 93 e4 bc 6f e8 cd 3e 78 18 00 3f
       0.18082926 -0.02790246 0.40216395 0.50037336
000130 01 b6 97 3e 78 a8 2c 3c 5f 44 f5 3e ca 91 b3 3e
       0.29631045 0.010538213 0.47903726 0.35072166
000140 91 44 88 3d 2b 03 36 3c 50 79 75 be 53 0b b3 3e
       0.06653703 0.011109154 -0.23972058 0.34969577
000150 ad 79 00 be d6 28 c8 3e 41 01 a5 3e 16 af c9 bc
       -0.12546416 0.39093655 0.3222752 -0.02461962
000160 f2 15 c7 3e 26 9c 7b 3e 7a 03 09 be ea 07 01 be
       0.3888393 0.24571285 -0.13380232 -0.12600675
000170 df ba 72 3e ba d5 0b be 2c bf 18 bd 7e 10 a8 bc
       0.23704098 -0.13655749 -0.03729169 -0.020515677
000180 ca dc 13 3f d6 f8 e0 be 2f dc 4b 3d 1a bf c6 bd
       0.5775877 -0.43939847 0.04977053 -0.097044185
000190 35 26 d3 3e 2b 02 8e bd 6e 49 54 3e 70 64 67 be
       0.41240087 -0.06934007 0.20731136 -0.22596908
0001a0 a8 09 1a be 47 61 43 be 38 c1 00 3f e8 29 c7 3e
       -0.15042746 -0.19080077 0.5029483 0.3889916
0001b0 ea ed de bd 29 aa 04 3f fd 46 3f be 85 28 8a 3e
       -0.10885222 0.51822144 -0.18679424 0.2698404
0001c0 f7 f5 36 3f 49 a7 b5 3e 17 60 d1 bd 5c f0 8a 3e
       0.7146906 0.3547919 -0.10223406 0.27136505
0001d0 aa 29 bb be 89 03 aa 3d 08 43 5b be b6 36 23 3d
       -0.36555225 0.083014555 -0.21412289 0.0398471
0001e0 7d b0 12 3f 30 0b 05 3f 22 e2 fb 3e c7 a4 86 3e
       0.5730055 0.51970196 0.49195963 0.2629759
0001f0 c0 ba 89 3e 02 e5 5c be 55 d6 ed 3e 35 24 0e 3e
       0.2690029 -0.21571735 0.46452585 0.13881
